…
 'output_dir': PosixPath('cifar10'),
 'resume': None,
 'seed': 0,
 'topn': 500,
 'transformation_kwargs': {'normalize': {'mean': [0.4914, 0.4822, 0.4465],
                                         'std': [0.2023, 0.1994, 0.201]}},
 'val_percent': 0.1,
 'wandb': False}
2022-06-29 14:41:36,171: INFO: Model Summary
==========================================================================================
Layer (type:depth-idx)                   Output Shape              Param #
==========================================================================================
├─Sequential: 1-1                        [-1, 1024]                --
|    └─Conv2d: 2-1                       [-1, 64, 16, 16]          1,792
|    └─MaxPool2d: 2-2                    [-1, 64, 8, 8]            --
|    └─ReLU: 2-3                         [-1, 64, 8, 8]            --
|    └─Conv2d: 2-4                       [-1, 192, 8, 8]           110,784
|    └─MaxPool2d: 2-5                    [-1, 192, 4, 4]           --
|    └─ReLU: 2-6                         [-1, 192, 4, 4]           --
|    └─Conv2d: 2-7                       [-1, 384, 4, 4]           663,936
|    └─ReLU: 2-8                         [-1, 384, 4, 4]           --
|    └─Conv2d: 2-9                       [-1, 256, 4, 4]           884,992
|    └─ReLU: 2-10                        [-1, 256, 4, 4]           --
|    └─Conv2d: 2-11                      [-1, 256, 4, 4]           590,080
|    └─MaxPool2d: 2-12                   [-1, 256, 2, 2]           --
|    └─ReLU: 2-13                        [-1, 256, 2, 2]           --
|    └─Flatten: 2-14                     [-1, 1024]                --
├─Sequential: 1-2                        [-1, 10]                  --
|    └─Dropout: 2-15                     [-1, 1024]                --
|    └─Linear: 2-16                      [-1, 512]                 524,800
|    └─ReLU: 2-17                        [-1, 512]                 --
|    └─Dropout: 2-18                     [-1, 512]                 --
|    └─Linear: 2-19                      [-1, 256]                 131,328
|    └─ReLU: 2-20                        [-1, 256]                 --
|    └─Linear: 2-21                      [-1, 10]                  2,570
|    └─LogSoftmax: 2-22                  [-1, 10]                  --
==========================================================================================
Total params: 2,910,282
Trainable params: 2,910,282
Non-trainable params: 0
Total mult-adds (M): 45.30
==========================================================================================
Input size (MB): 0.01
Forward/backward pass size (MB): 0.33
Params size (MB): 11.10
Estimated Total Size (MB): 11.45
…
