…
 'std': [0.2673, 0.2564, 0.2762],
 'step_size': 30,
 'temp': False,
 'test_model': None,
 'topn': 5000,
 'train': True,
 'val_batch_size': 1000,
 'weight_decay': 0.01,
 'with_train': False}
2022-10-19 13:29:41,037: INFO: Finding Mean Gradients for whole dataset at once.
2022-10-19 13:29:43,567: INFO: Model Summary
==========================================================================================
Layer (type:depth-idx)                   Output Shape              Param #
==========================================================================================
├─Conv2d: 1-1                            [-1, 64, 32, 32]          1,728
├─BatchNorm2d: 1-2                       [-1, 64, 32, 32]          128
├─Sequential: 1-3                        [-1, 64, 32, 32]          --
|    └─BasicBlock: 2-1                   [-1, 64, 32, 32]          --
|    |    └─Conv2d: 3-1                  [-1, 64, 32, 32]          36,864
|    |    └─BatchNorm2d: 3-2             [-1, 64, 32, 32]          128
|    |    └─Conv2d: 3-3                  [-1, 64, 32, 32]          36,864
|    |    └─BatchNorm2d: 3-4             [-1, 64, 32, 32]          128
|    |    └─Sequential: 3-5              [-1, 64, 32, 32]          --
|    └─BasicBlock: 2-2                   [-1, 64, 32, 32]          --
|    |    └─Conv2d: 3-6                  [-1, 64, 32, 32]          36,864
|    |    └─BatchNorm2d: 3-7             [-1, 64, 32, 32]          128
|    |    └─Conv2d: 3-8                  [-1, 64, 32, 32]          36,864
|    |    └─BatchNorm2d: 3-9             [-1, 64, 32, 32]          128
|    |    └─Sequential: 3-10             [-1, 64, 32, 32]          --
├─Sequential: 1-4                        [-1, 128, 16, 16]         --
|    └─BasicBlock: 2-3                   [-1, 128, 16, 16]         --
|    |    └─Conv2d: 3-11                 [-1, 128, 16, 16]         73,728
|    |    └─BatchNorm2d: 3-12            [-1, 128, 16, 16]         256
|    |    └─Conv2d: 3-13                 [-1, 128, 16, 16]         147,456
|    |    └─BatchNorm2d: 3-14            [-1, 128, 16, 16]         256
|    |    └─Sequential: 3-15             [-1, 128, 16, 16]         8,448
|    └─BasicBlock: 2-4                   [-1, 128, 16, 16]         --
|    |    └─Conv2d: 3-16                 [-1, 128, 16, 16]         147,456
|    |    └─BatchNorm2d: 3-17            [-1, 128, 16, 16]         256
|    |    └─Conv2d: 3-18                 [-1, 128, 16, 16]         147,456
|    |    └─BatchNorm2d: 3-19            [-1, 128, 16, 16]         256
|    |    └─Sequential: 3-20             [-1, 128, 16, 16]         --
├─Sequential: 1-5                        [-1, 256, 8, 8]           --
|    └─BasicBlock: 2-5                   [-1, 256, 8, 8]           --
|    |    └─Conv2d: 3-21                 [-1, 256, 8, 8]           294,912
|    |    └─BatchNorm2d: 3-22            [-1, 256, 8, 8]           512
|    |    └─Conv2d: 3-23                 [-1, 256, 8, 8]           589,824
|    |    └─BatchNorm2d: 3-24            [-1, 256, 8, 8]           512
|    |    └─Sequential: 3-25             [-1, 256, 8, 8]           33,280
|    └─BasicBlock: 2-6                   [-1, 256, 8, 8]           --
|    |    └─Conv2d: 3-26                 [-1, 256, 8, 8]           589,824
|    |    └─BatchNorm2d: 3-27            [-1, 256, 8, 8]           512
|    |    └─Conv2d: 3-28                 [-1, 256, 8, 8]           589,824
|    |    └─BatchNorm2d: 3-29            [-1, 256, 8, 8]           512
|    |    └─Sequential: 3-30             [-1, 256, 8, 8]           --
├─Sequential: 1-6                        [-1, 512, 4, 4]           --
|    └─BasicBlock: 2-7                   [-1, 512, 4, 4]           --
|    |    └─Conv2d: 3-31                 [-1, 512, 4, 4]           1,179,648
|    |    └─BatchNorm2d: 3-32            [-1, 512, 4, 4]           1,024
|    |    └─Conv2d: 3-33                 [-1, 512, 4, 4]           2,359,296
|    |    └─BatchNorm2d: 3-34            [-1, 512, 4, 4]           1,024
|    |    └─Sequential: 3-35             [-1, 512, 4, 4]           132,096
|    └─BasicBlock: 2-8                   [-1, 512, 4, 4]           --
|    |    └─Conv2d: 3-36                 [-1, 512, 4, 4]           2,359,296
|    |    └─BatchNorm2d: 3-37            [-1, 512, 4, 4]           1,024
|    |    └─Conv2d: 3-38                 [-1, 512, 4, 4]           2,359,296
|    |    └─BatchNorm2d: 3-39            [-1, 512, 4, 4]           1,024
|    |    └─Sequential: 3-40             [-1, 512, 4, 4]           --
├─EmbeddingRecorder: 1-7                 [-1, 512]                 --
├─Linear: 1-8                            [-1, 100]                 51,300
==========================================================================================
Total params: 11,220,132
Trainable params: 11,220,132
Non-trainable params: 0
Total mult-adds (M): 577.97
==========================================================================================
Input size (MB): 0.01
Forward/backward pass size (MB): 9.38
Params size (MB): 42.80
Estimated Total Size (MB): 52.19
…
