…
Transform: Compose(
               ToTensor()
               Normalize(mean=[0.4914, 0.4822, 0.4465], std=[0.247, 0.2435, 0.2616])
           )
2022-10-16 22:43:29,836: INFO: all_similarities_perclass.shape: (10, 100, 5000), all_imginds_perclass.shape: (10, 100, 5000)
2022-10-16 22:43:32,599: INFO: Model Summary
==========================================================================================
Layer (type:depth-idx)                   Output Shape              Param #
==========================================================================================
├─Conv2d: 1-1                            [-1, 64, 16, 16]          9,408
├─BatchNorm2d: 1-2                       [-1, 64, 16, 16]          128
├─ReLU: 1-3                              [-1, 64, 16, 16]          --
├─MaxPool2d: 1-4                         [-1, 64, 8, 8]            --
├─Sequential: 1-5                        [-1, 64, 8, 8]            --
|    └─BasicBlock: 2-1                   [-1, 64, 8, 8]            --
|    |    └─Conv2d: 3-1                  [-1, 64, 8, 8]            36,864
|    |    └─BatchNorm2d: 3-2             [-1, 64, 8, 8]            128
|    |    └─ReLU: 3-3                    [-1, 64, 8, 8]            --
|    |    └─Conv2d: 3-4                  [-1, 64, 8, 8]            36,864
|    |    └─BatchNorm2d: 3-5             [-1, 64, 8, 8]            128
|    |    └─ReLU: 3-6                    [-1, 64, 8, 8]            --
|    └─BasicBlock: 2-2                   [-1, 64, 8, 8]            --
|    |    └─Conv2d: 3-7                  [-1, 64, 8, 8]            36,864
|    |    └─BatchNorm2d: 3-8             [-1, 64, 8, 8]            128
|    |    └─ReLU: 3-9                    [-1, 64, 8, 8]            --
|    |    └─Conv2d: 3-10                 [-1, 64, 8, 8]            36,864
|    |    └─BatchNorm2d: 3-11            [-1, 64, 8, 8]            128
|    |    └─ReLU: 3-12                   [-1, 64, 8, 8]            --
├─Sequential: 1-6                        [-1, 128, 4, 4]           --
|    └─BasicBlock: 2-3                   [-1, 128, 4, 4]           --
|    |    └─Conv2d: 3-13                 [-1, 128, 4, 4]           73,728
|    |    └─BatchNorm2d: 3-14            [-1, 128, 4, 4]           256
|    |    └─ReLU: 3-15                   [-1, 128, 4, 4]           --
|    |    └─Conv2d: 3-16                 [-1, 128, 4, 4]           147,456
|    |    └─BatchNorm2d: 3-17            [-1, 128, 4, 4]           256
|    |    └─Sequential: 3-18             [-1, 128, 4, 4]           8,448
|    |    └─ReLU: 3-19                   [-1, 128, 4, 4]           --
|    └─BasicBlock: 2-4                   [-1, 128, 4, 4]           --
|    |    └─Conv2d: 3-20                 [-1, 128, 4, 4]           147,456
|    |    └─BatchNorm2d: 3-21            [-1, 128, 4, 4]           256
|    |    └─ReLU: 3-22                   [-1, 128, 4, 4]           --
|    |    └─Conv2d: 3-23                 [-1, 128, 4, 4]           147,456
|    |    └─BatchNorm2d: 3-24            [-1, 128, 4, 4]           256
|    |    └─ReLU: 3-25                   [-1, 128, 4, 4]           --
├─Sequential: 1-7                        [-1, 256, 2, 2]           --
|    └─BasicBlock: 2-5                   [-1, 256, 2, 2]           --
|    |    └─Conv2d: 3-26                 [-1, 256, 2, 2]           294,912
|    |    └─BatchNorm2d: 3-27            [-1, 256, 2, 2]           512
|    |    └─ReLU: 3-28                   [-1, 256, 2, 2]           --
|    |    └─Conv2d: 3-29                 [-1, 256, 2, 2]           589,824
|    |    └─BatchNorm2d: 3-30            [-1, 256, 2, 2]           512
|    |    └─Sequential: 3-31             [-1, 256, 2, 2]           33,280
|    |    └─ReLU: 3-32                   [-1, 256, 2, 2]           --
|    └─BasicBlock: 2-6                   [-1, 256, 2, 2]           --
|    |    └─Conv2d: 3-33                 [-1, 256, 2, 2]           589,824
|    |    └─BatchNorm2d: 3-34            [-1, 256, 2, 2]           512
|    |    └─ReLU: 3-35                   [-1, 256, 2, 2]           --
|    |    └─Conv2d: 3-36                 [-1, 256, 2, 2]           589,824
|    |    └─BatchNorm2d: 3-37            [-1, 256, 2, 2]           512
|    |    └─ReLU: 3-38                   [-1, 256, 2, 2]           --
├─Sequential: 1-8                        [-1, 512, 1, 1]           --
|    └─BasicBlock: 2-7                   [-1, 512, 1, 1]           --
|    |    └─Conv2d: 3-39                 [-1, 512, 1, 1]           1,179,648
|    |    └─BatchNorm2d: 3-40            [-1, 512, 1, 1]           1,024
|    |    └─ReLU: 3-41                   [-1, 512, 1, 1]           --
|    |    └─Conv2d: 3-42                 [-1, 512, 1, 1]           2,359,296
|    |    └─BatchNorm2d: 3-43            [-1, 512, 1, 1]           1,024
|    |    └─Sequential: 3-44             [-1, 512, 1, 1]           132,096
|    |    └─ReLU: 3-45                   [-1, 512, 1, 1]           --
|    └─BasicBlock: 2-8                   [-1, 512, 1, 1]           --
|    |    └─Conv2d: 3-46                 [-1, 512, 1, 1]           2,359,296
|    |    └─BatchNorm2d: 3-47            [-1, 512, 1, 1]           1,024
|    |    └─ReLU: 3-48                   [-1, 512, 1, 1]           --
|    |    └─Conv2d: 3-49                 [-1, 512, 1, 1]           2,359,296
|    |    └─BatchNorm2d: 3-50            [-1, 512, 1, 1]           1,024
|    |    └─ReLU: 3-51                   [-1, 512, 1, 1]           --
├─AdaptiveAvgPool2d: 1-9                 [-1, 512, 1, 1]           --
├─EmbeddingRecorder: 1-10                [-1, 512]                 --
├─Linear: 1-11                           [-1, 10]                  5,130
==========================================================================================
Total params: 11,181,642
Trainable params: 11,181,642
Non-trainable params: 0
Total mult-adds (M): 59.52
==========================================================================================
Input size (MB): 0.01
Forward/backward pass size (MB): 0.77
Params size (MB): 42.65
Estimated Total Size (MB): 43.44
…
