…
    StandardTransform
Transform: Compose(
               ToTensor()
               Normalize(mean=[0.5071, 0.4867, 0.4408], std=[0.2675, 0.2565, 0.2761])
           )
2022-07-03 14:42:59,544: INFO: all_similarities.shape: (100, 50000), all_imginds.shape: (100, 50000)
2022-07-03 14:43:05,085: INFO: Model Summary
==========================================================================================
Layer (type:depth-idx)                   Output Shape              Param #
==========================================================================================
├─Sequential: 1-1                        [-1, 1024]                --
|    └─Conv2d: 2-1                       [-1, 64, 16, 16]          1,792
|    └─MaxPool2d: 2-2                    [-1, 64, 8, 8]            --
|    └─ReLU: 2-3                         [-1, 64, 8, 8]            --
|    └─Conv2d: 2-4                       [-1, 192, 8, 8]           110,784
|    └─MaxPool2d: 2-5                    [-1, 192, 4, 4]           --
|    └─ReLU: 2-6                         [-1, 192, 4, 4]           --
|    └─Conv2d: 2-7                       [-1, 384, 4, 4]           663,936
|    └─ReLU: 2-8                         [-1, 384, 4, 4]           --
|    └─Conv2d: 2-9                       [-1, 256, 4, 4]           884,992
|    └─ReLU: 2-10                        [-1, 256, 4, 4]           --
|    └─Conv2d: 2-11                      [-1, 256, 4, 4]           590,080
|    └─MaxPool2d: 2-12                   [-1, 256, 2, 2]           --
|    └─ReLU: 2-13                        [-1, 256, 2, 2]           --
|    └─Flatten: 2-14                     [-1, 1024]                --
├─Sequential: 1-2                        [-1, 100]                 --
|    └─Dropout: 2-15                     [-1, 1024]                --
|    └─Linear: 2-16                      [-1, 512]                 524,800
|    └─ReLU: 2-17                        [-1, 512]                 --
|    └─Dropout: 2-18                     [-1, 512]                 --
|    └─Linear: 2-19                      [-1, 256]                 131,328
|    └─ReLU: 2-20                        [-1, 256]                 --
|    └─Linear: 2-21                      [-1, 100]                 25,700
|    └─LogSoftmax: 2-22                  [-1, 100]                 --
==========================================================================================
Total params: 2,933,412
Trainable params: 2,933,412
Non-trainable params: 0
Total mult-adds (M): 45.34
==========================================================================================
Input size (MB): 0.01
Forward/backward pass size (MB): 0.33
Params size (MB): 11.19
Estimated Total Size (MB): 11.54
…
